# Inception Network (GoogLeNet variant) Batch Normalization
name: "InceptionNetwork_bn"
### Training Set
layers {
  top: "data"
  top: "label"
  name: "data"
  type: DATA
  data_param {
    source: "/media/data0/image/ilsvrc12/ilsvrc12_train_lmdb"
    batch_size: 32
    backend: LMDB
    shuffle: true
  }
  include {
    phase: TRAIN
  }
  transform_param {
    mirror: true
    crop_size: 224
    mean_file: "/media/data1/image/ilsvrc12/imagenet_mean.binaryproto"
    #mean_value: 104
    #mean_value: 117
    #mean_value: 123
  }
}
#layers {
#  name: "data"
#  type: IMAGE_DATA_AFFINE
#  top: "data"
#  top: "label"
#  image_data_affine_param {
#    source: "/media/data/kaggle/nationalDataScienceBowl/data/typeF/train.txt"
#    root_folder: "/media/data/kaggle/nationalDataScienceBowl/data/typeF/"
#    scale: 0.00390625
#    batch_size: 128
#    new_size: 96
#    is_color: false
#    shuffle: true
#  }
#  transform_param {
#    mean_file: "/media/data/kaggle/nationalDataScienceBowl/data/typeF/train_mean.binaryproto"
#    mirror: true
#    affine_param { 
#      x_stretch_unirnd_range: 0.01
#      y_stretch_unirnd_range: 0.01
#      rotation_unirnd_range: 180
#      max_translation: 5
#      background_color: 255
#    } 
#  }
#  include { phase: TRAIN }
#}
#
### Validation Set
layers {
  top: "data"
  top: "label"
  name: "data"
  type: DATA
  data_param {
    source: "/media/data1/image/ilsvrc12/ilsvrc12_val_lmdb"
    batch_size: 32
    backend: LMDB
  }
  include {
    phase: TEST
  }
  transform_param {
    mirror: false
    crop_size: 224
    mean_file: "/media/data1/image/ilsvrc12/imagenet_mean.binaryproto"
  }
}
#layers {
#  name: "data"
#  type: IMAGE_DATA_AFFINE
#  top: "data"
#  top: "label"
#  image_data_affine_param {
#    source: "/media/data/kaggle/nationalDataScienceBowl/data/typeF/val.txt"
#    root_folder: "/media/data/kaggle/nationalDataScienceBowl/data/typeF/"
#    scale: 0.00390625
#    batch_size: 128
#    new_size: 96
#    is_color: false
#    shuffle: true
#  }
#  transform_param {
#    mean_file: "/media/data/kaggle/nationalDataScienceBowl/data/typeF/train_mean.binaryproto"
#    mirror: true
#    affine_param { 
#      x_stretch_unirnd_range: 0.01
#      y_stretch_unirnd_range: 0.01
#      rotation_unirnd_range: 180
#      max_translation: 5
#      background_color: 255
#    } 
#  }
#  include { phase: TEST }
#}
layers {
  bottom: "data"
  top: "conv1/7x7_s2"
  name: "conv1/7x7_s2"
  type: CONVOLUTION
  blobs_lr: 1
  weight_decay: 1
  convolution_param {
    num_output: 64
    pad: 3
    kernel_size: 7
    stride: 2
    weight_filler {
      type: "xavier"
    }
    bias_term: false
  }
}
## BN
layers {
  bottom: "conv1/7x7_s2"
  name: "conv1/7x7_s2/bn"
  top: "conv1/7x7_s2/bn"
  type: BN
  blobs_lr: 1
  blobs_lr: 1
  weight_decay: 0
  weight_decay: 0
  bn_param {
    scale_filler {
      type: "constant"
      value: 1
    }
    shift_filler {
      type: "constant"
      value: 0
    }
  }
}
layers {
  bottom: "conv1/7x7_s2/bn"
  top: "conv1/7x7_s2/bn"
  name: "conv1/relu_7x7"
  type: RELU
}
layers {
  bottom: "conv1/7x7_s2/bn"
  top: "pool1/3x3_s2"
  name: "pool1/3x3_s2"
  type: POOLING
  pooling_param {
    pool: MAX
    kernel_size: 3
    stride: 2
  }
}
layers {
  bottom: "pool1/3x3_s2"
  top: "conv2/3x3_reduce"
  name: "conv2/3x3_reduce"
  type: CONVOLUTION
  blobs_lr: 1
  weight_decay: 1
  convolution_param {
    num_output: 64
    kernel_size: 1
    weight_filler {
      type: "xavier"
    }
    bias_term: false
  }
}
## BN
layers {
  bottom: "conv2/3x3_reduce"
  name: "conv2/3x3_reduce/bn"
  top: "conv2/3x3_reduce/bn"
  type: BN
  blobs_lr: 1
  blobs_lr: 1
  weight_decay: 0
  weight_decay: 0
  bn_param {
    scale_filler {
      type: "constant"
      value: 1
    }
    shift_filler {
      type: "constant"
      value: 0
    }
  }
}
layers {
  bottom: "conv2/3x3_reduce/bn"
  top: "conv2/3x3_reduce/bn"
  name: "conv2/relu_3x3_reduce"
  type: RELU
}
layers {
  bottom: "conv2/3x3_reduce/bn"
  top: "conv2/3x3"
  name: "conv2/3x3"
  type: CONVOLUTION
  blobs_lr: 1
  weight_decay: 1
  convolution_param {
    num_output: 192
    pad: 1
    kernel_size: 3
    weight_filler {
      type: "xavier"
    }
    bias_term: false
  }
}
## BN
layers {
  bottom: "conv2/3x3"
  name: "conv2/3x3/bn"
  top: "conv2/3x3/bn"
  type: BN
  blobs_lr: 1
  blobs_lr: 1
  weight_decay: 0
  weight_decay: 0
  bn_param {
    scale_filler {
      type: "constant"
      value: 1
    }
    shift_filler {
      type: "constant"
      value: 0
    }
  }
}
layers {
  bottom: "conv2/3x3/bn"
  top: "conv2/3x3/bn"
  name: "conv2/relu_3x3"
  type: RELU
}
layers {
  bottom: "conv2/3x3/bn"
  top: "pool2/3x3_s2"
  name: "pool2/3x3_s2"
  type: POOLING
  pooling_param {
    pool: MAX
    kernel_size: 3
    stride: 2
  }
}
layers {
  bottom: "pool2/3x3_s2"
  top: "inception_3a/1x1"
  name: "inception_3a/1x1"
  type: CONVOLUTION
  blobs_lr: 1
  weight_decay: 1
  convolution_param {
    num_output: 64
    kernel_size: 1
    weight_filler {
      type: "xavier"
    }
    bias_term: false
  }
}
## BN
layers {
  bottom: "inception_3a/1x1"
  name: "inception_3a/1x1/bn"
  top: "inception_3a/1x1/bn"
  type: BN
  blobs_lr: 1
  blobs_lr: 1
  weight_decay: 0
  weight_decay: 0
  bn_param {
    scale_filler {
      type: "constant"
      value: 1
    }
    shift_filler {
      type: "constant"
      value: 0
    }
  }
}
layers {
  bottom: "inception_3a/1x1/bn"
  top: "inception_3a/1x1/bn"
  name: "inception_3a/relu_1x1"
  type: RELU
}
layers {
  bottom: "pool2/3x3_s2"
  top: "inception_3a/3x3_reduce"
  name: "inception_3a/3x3_reduce"
  type: CONVOLUTION
  blobs_lr: 1
  weight_decay: 1
  convolution_param {
    #num_output: 96
    num_output: 64
    kernel_size: 1
    weight_filler {
      type: "xavier"
    }
    bias_term: false
  }
}
## BN
layers {
  bottom: "inception_3a/3x3_reduce"
  name: "inception_3a/3x3_reduce/bn"
  top: "inception_3a/3x3_reduce/bn"
  type: BN
  blobs_lr: 1
  blobs_lr: 1
  weight_decay: 0
  weight_decay: 0
  bn_param {
    scale_filler {
      type: "constant"
      value: 1
    }
    shift_filler {
      type: "constant"
      value: 0
    }
  }
}
layers {
  bottom: "inception_3a/3x3_reduce/bn"
  top: "inception_3a/3x3_reduce/bn"
  name: "inception_3a/relu_3x3_reduce"
  type: RELU
}
layers {
  bottom: "inception_3a/3x3_reduce/bn"
  top: "inception_3a/3x3"
  name: "inception_3a/3x3"
  type: CONVOLUTION
  blobs_lr: 1
  weight_decay: 1
  convolution_param {
    #num_output: 128
    num_output: 64
    pad: 1
    kernel_size: 3
    weight_filler {
      type: "xavier"
    }
    bias_term: false
  }
}
## BN
layers {
  bottom: "inception_3a/3x3"
  name: "inception_3a/3x3/bn"
  top: "inception_3a/3x3/bn"
  type: BN
  blobs_lr: 1
  blobs_lr: 1
  weight_decay: 0
  weight_decay: 0
  bn_param {
    scale_filler {
      type: "constant"
      value: 1
    }
    shift_filler {
      type: "constant"
      value: 0
    }
  }
}
layers {
  bottom: "inception_3a/3x3/bn"
  top: "inception_3a/3x3/bn"
  name: "inception_3a/relu_3x3"
  type: RELU
}
layers {
  bottom: "pool2/3x3_s2"
  top: "inception_3a/double3x3_reduce"
  name: "inception_3a/double3x3_reduce"
  type: CONVOLUTION
  blobs_lr: 1
  weight_decay: 1
  convolution_param {
    #num_output: 16
    num_output: 64
    kernel_size: 1
    weight_filler {
      type: "xavier"
    }
    bias_term: false
  }
}
## BN
layers {
  bottom: "inception_3a/double3x3_reduce"
  name: "inception_3a/double3x3_reduce/bn"
  top: "inception_3a/double3x3_reduce/bn"
  type: BN
  blobs_lr: 1
  blobs_lr: 1
  weight_decay: 0
  weight_decay: 0
  bn_param {
    scale_filler {
      type: "constant"
      value: 1
    }
    shift_filler {
      type: "constant"
      value: 0
    }
  }
}
layers {
  bottom: "inception_3a/double3x3_reduce/bn"
  top: "inception_3a/double3x3_reduce/bn"
  name: "inception_3a/relu_double3x3_reduce"
  type: RELU
}
layers {
  bottom: "inception_3a/double3x3_reduce/bn"
  top: "inception_3a/double3x3a"
  name: "inception_3a/double3x3a"
  type: CONVOLUTION
  blobs_lr: 1
  weight_decay: 1
  convolution_param {
    #num_output: 32
    num_output: 96
    pad: 1
    kernel_size: 3
    weight_filler {
      type: "xavier"
    }
    bias_term: false
  }
}
## BN
layers {
  bottom: "inception_3a/double3x3a"
  name: "inception_3a/double3x3a/bn"
  top: "inception_3a/double3x3a/bn"
  type: BN
  blobs_lr: 1
  blobs_lr: 1
  weight_decay: 0
  weight_decay: 0
  bn_param {
    scale_filler {
      type: "constant"
      value: 1
    }
    shift_filler {
      type: "constant"
      value: 0
    }
  }
}
layers {
  bottom: "inception_3a/double3x3a/bn"
  top: "inception_3a/double3x3a/bn"
  name: "inception_3a/relu_double3x3a"
  type: RELU
}
layers {
  bottom: "inception_3a/double3x3a/bn"
  top: "inception_3a/double3x3b"
  name: "inception_3a/double3x3b"
  type: CONVOLUTION
  blobs_lr: 1
  weight_decay: 1
  convolution_param {
    #num_output: 32
    num_output: 96
    pad: 1
    kernel_size: 3
    weight_filler {
      type: "xavier"
    }
    bias_term: false
  }
}
## BN
layers {
  bottom: "inception_3a/double3x3b"
  name: "inception_3a/double3x3b/bn"
  top: "inception_3a/double3x3b/bn"
  type: BN
  blobs_lr: 1
  blobs_lr: 1
  weight_decay: 0
  weight_decay: 0
  bn_param {
    scale_filler {
      type: "constant"
      value: 1
    }
    shift_filler {
      type: "constant"
      value: 0
    }
  }
}
layers {
  bottom: "inception_3a/double3x3b/bn"
  top: "inception_3a/double3x3b/bn"
  name: "inception_3a/relu_double3x3b"
  type: RELU
}
layers {
  bottom: "pool2/3x3_s2"
  top: "inception_3a/pool"
  name: "inception_3a/pool"
  type: POOLING
  pooling_param {
    #pool: MAX
    pool: AVE
    kernel_size: 3
    stride: 1
    pad: 1
  }
}
layers {
  bottom: "inception_3a/pool"
  top: "inception_3a/pool_proj"
  name: "inception_3a/pool_proj"
  type: CONVOLUTION
  blobs_lr: 1
  weight_decay: 1
  convolution_param {
    num_output: 32
    kernel_size: 1
    weight_filler {
      type: "xavier"
    }
    bias_term: false
  }
}
## BN
layers {
  bottom: "inception_3a/pool_proj"
  name: "inception_3a/pool_proj/bn"
  top: "inception_3a/pool_proj/bn"
  type: BN
  blobs_lr: 1
  blobs_lr: 1
  weight_decay: 0
  weight_decay: 0
  bn_param {
    scale_filler {
      type: "constant"
      value: 1
    }
    shift_filler {
      type: "constant"
      value: 0
    }
  }
}
layers {
  bottom: "inception_3a/pool_proj/bn"
  top: "inception_3a/pool_proj/bn"
  name: "inception_3a/relu_pool_proj"
  type: RELU
}
layers {
  bottom: "inception_3a/1x1/bn"
  bottom: "inception_3a/3x3/bn"
  bottom: "inception_3a/double3x3b/bn"
  bottom: "inception_3a/pool_proj/bn"
  top: "inception_3a/output"
  name: "inception_3a/output"
  type: CONCAT
}
layers {
  bottom: "inception_3a/output"
  top: "inception_3b/1x1"
  name: "inception_3b/1x1"
  type: CONVOLUTION
  blobs_lr: 1
  weight_decay: 1
  convolution_param {
    #num_output: 128
    num_output: 64
    kernel_size: 1
    weight_filler {
      type: "xavier"
    }
    bias_term: false
  }
}
## BN
layers {
  bottom: "inception_3b/1x1"
  name: "inception_3b/1x1/bn"
  top: "inception_3b/1x1/bn"
  type: BN
  blobs_lr: 1
  blobs_lr: 1
  weight_decay: 0
  weight_decay: 0
  bn_param {
    scale_filler {
      type: "constant"
      value: 1
    }
    shift_filler {
      type: "constant"
      value: 0
    }
  }
}
layers {
  bottom: "inception_3b/1x1/bn"
  top: "inception_3b/1x1/bn"
  name: "inception_3b/relu_1x1"
  type: RELU
}
layers {
  bottom: "inception_3a/output"
  top: "inception_3b/3x3_reduce"
  name: "inception_3b/3x3_reduce"
  type: CONVOLUTION
  blobs_lr: 1
  weight_decay: 1
  convolution_param {
    #num_output: 128
    num_output: 64
    kernel_size: 1
    weight_filler {
      type: "xavier"
    }
    bias_term: false
  }
}
## BN
layers {
  bottom: "inception_3b/3x3_reduce"
  name: "inception_3b/3x3_reduce/bn"
  top: "inception_3b/3x3_reduce/bn"
  type: BN
  blobs_lr: 1
  blobs_lr: 1
  weight_decay: 0
  weight_decay: 0
  bn_param {
    scale_filler {
      type: "constant"
      value: 1
    }
    shift_filler {
      type: "constant"
      value: 0
    }
  }
}
layers {
  bottom: "inception_3b/3x3_reduce/bn"
  top: "inception_3b/3x3_reduce/bn"
  name: "inception_3b/relu_3x3_reduce"
  type: RELU
}
layers {
  bottom: "inception_3b/3x3_reduce/bn"
  top: "inception_3b/3x3"
  name: "inception_3b/3x3"
  type: CONVOLUTION
  blobs_lr: 1
  weight_decay: 1
  convolution_param {
    #num_output: 192
    num_output: 96
    pad: 1
    kernel_size: 3
    weight_filler {
      type: "xavier"
    }
    bias_term: false
  }
}
## BN
layers {
  bottom: "inception_3b/3x3"
  name: "inception_3b/3x3/bn"
  top: "inception_3b/3x3/bn"
  type: BN
  blobs_lr: 1
  blobs_lr: 1
  weight_decay: 0
  weight_decay: 0
  bn_param {
    scale_filler {
      type: "constant"
      value: 1
    }
    shift_filler {
      type: "constant"
      value: 0
    }
  }
}
layers {
  bottom: "inception_3b/3x3/bn"
  top: "inception_3b/3x3/bn"
  name: "inception_3b/relu_3x3"
  type: RELU
}
layers {
  bottom: "inception_3a/output"
  top: "inception_3b/double3x3_reduce"
  name: "inception_3b/double3x3_reduce"
  type: CONVOLUTION
  blobs_lr: 1
  weight_decay: 1
  convolution_param {
    #num_output: 32
    num_output: 64
    kernel_size: 1
    weight_filler {
      type: "xavier"
    }
    bias_term: false
  }
}
## BN
layers {
  bottom: "inception_3b/double3x3_reduce"
  name: "inception_3b/double3x3_reduce/bn"
  top: "inception_3b/double3x3_reduce/bn"
  type: BN
  blobs_lr: 1
  blobs_lr: 1
  weight_decay: 0
  weight_decay: 0
  bn_param {
    scale_filler {
      type: "constant"
      value: 1
    }
    shift_filler {
      type: "constant"
      value: 0
    }
  }
}
layers {
  bottom: "inception_3b/double3x3_reduce/bn"
  top: "inception_3b/double3x3_reduce/bn"
  name: "inception_3b/relu_double3x3_reduce"
  type: RELU
}
layers {
  bottom: "inception_3b/double3x3_reduce/bn"
  top: "inception_3b/double3x3a"
  name: "inception_3b/double3x3a"
  type: CONVOLUTION
  blobs_lr: 1
  weight_decay: 1
  convolution_param {
    num_output: 96
    pad: 1
    kernel_size: 3
    weight_filler {
      type: "xavier"
    }
    bias_term: false
  }
}
## BN
layers {
  bottom: "inception_3b/double3x3a"
  name: "inception_3b/double3x3a/bn"
  top: "inception_3b/double3x3a/bn"
  type: BN
  blobs_lr: 1
  blobs_lr: 1
  weight_decay: 0
  weight_decay: 0
  bn_param {
    scale_filler {
      type: "constant"
      value: 1
    }
    shift_filler {
      type: "constant"
      value: 0
    }
  }
}
layers {
  bottom: "inception_3b/double3x3a/bn"
  top: "inception_3b/double3x3a/bn"
  name: "inception_3b/relu_double3x3a"
  type: RELU
}
layers {
  bottom: "inception_3b/double3x3a/bn"
  top: "inception_3b/double3x3b"
  name: "inception_3b/double3x3b"
  type: CONVOLUTION
  blobs_lr: 1
  weight_decay: 1
  convolution_param {
    num_output: 96
    pad: 1
    kernel_size: 3
    weight_filler {
      type: "xavier"
    }
    bias_term: false
  }
}
## BN
layers {
  bottom: "inception_3b/double3x3b"
  name: "inception_3b/double3x3b/bn"
  top: "inception_3b/double3x3b/bn"
  type: BN
  blobs_lr: 1
  blobs_lr: 1
  weight_decay: 0
  weight_decay: 0
  bn_param {
    scale_filler {
      type: "constant"
      value: 1
    }
    shift_filler {
      type: "constant"
      value: 0
    }
  }
}
layers {
  bottom: "inception_3b/double3x3b/bn"
  top: "inception_3b/double3x3b/bn"
  name: "inception_3b/relu_double3x3b"
  type: RELU
}
layers {
  bottom: "inception_3a/output"
  top: "inception_3b/pool"
  name: "inception_3b/pool"
  type: POOLING
  pooling_param {
    #pool: MAX
    pool: AVE
    kernel_size: 3
    stride: 1
    pad: 1
  }
}
layers {
  bottom: "inception_3b/pool"
  top: "inception_3b/pool_proj"
  name: "inception_3b/pool_proj"
  type: CONVOLUTION
  blobs_lr: 1
  weight_decay: 1
  convolution_param {
    num_output: 64
    kernel_size: 1
    weight_filler {
      type: "xavier"
    }
    bias_term: false
  }
}
## BN
layers {
  bottom: "inception_3b/pool_proj"
  name: "inception_3b/pool_proj/bn"
  top: "inception_3b/pool_proj/bn"
  type: BN
  blobs_lr: 1
  blobs_lr: 1
  weight_decay: 0
  weight_decay: 0
  bn_param {
    scale_filler {
      type: "constant"
      value: 1
    }
    shift_filler {
      type: "constant"
      value: 0
    }
  }
}
layers {
  bottom: "inception_3b/pool_proj/bn"
  top: "inception_3b/pool_proj/bn"
  name: "inception_3b/relu_pool_proj"
  type: RELU
}
layers {
  bottom: "inception_3b/1x1/bn"
  bottom: "inception_3b/3x3/bn"
  bottom: "inception_3b/double3x3b/bn"
  bottom: "inception_3b/pool_proj/bn"
  top: "inception_3b/output"
  name: "inception_3b/output"
  type: CONCAT
}
layers {
  bottom: "inception_3b/output"
  top: "inception_3c/3x3_reduce"
  name: "inception_3c/3x3_reduce"
  type: CONVOLUTION
  blobs_lr: 1
  weight_decay: 1
  convolution_param {
    num_output: 128
    kernel_size: 1
    weight_filler {
      type: "xavier"
    }
    bias_term: false
  }
}
## BN
layers {
  bottom: "inception_3c/3x3_reduce"
  name: "inception_3c/3x3_reduce/bn"
  top: "inception_3c/3x3_reduce/bn"
  type: BN
  blobs_lr: 1
  blobs_lr: 1
  weight_decay: 0
  weight_decay: 0
  bn_param {
    scale_filler {
      type: "constant"
      value: 1
    }
    shift_filler {
      type: "constant"
      value: 0
    }
  }
}
layers {
  bottom: "inception_3c/3x3_reduce/bn"
  top: "inception_3c/3x3_reduce/bn"
  name: "inception_3c/relu_3x3_reduce"
  type: RELU
}
layers {
  bottom: "inception_3c/3x3_reduce/bn"
  top: "inception_3c/3x3"
  name: "inception_3c/3x3"
  type: CONVOLUTION
  blobs_lr: 1
  weight_decay: 1
  convolution_param {
    num_output: 160
    pad: 1
    stride: 2
    kernel_size: 3
    weight_filler {
      type: "xavier"
    }
    bias_term: false
  }
}
## BN
layers {
  bottom: "inception_3c/3x3"
  name: "inception_3c/3x3/bn"
  top: "inception_3c/3x3/bn"
  type: BN
  blobs_lr: 1
  blobs_lr: 1
  weight_decay: 0
  weight_decay: 0
  bn_param {
    scale_filler {
      type: "constant"
      value: 1
    }
    shift_filler {
      type: "constant"
      value: 0
    }
  }
}
layers {
  bottom: "inception_3c/3x3/bn"
  top: "inception_3c/3x3/bn"
  name: "inception_3c/relu_3x3"
  type: RELU
}
layers {
  bottom: "inception_3b/output"
  top: "inception_3c/double3x3_reduce"
  name: "inception_3c/double3x3_reduce"
  type: CONVOLUTION
  blobs_lr: 1
  weight_decay: 1
  convolution_param {
    num_output: 64
    kernel_size: 1
    weight_filler {
      type: "xavier"
    }
    bias_term: false
  }
}
## BN
layers {
  bottom: "inception_3c/double3x3_reduce"
  name: "inception_3c/double3x3_reduce/bn"
  top: "inception_3c/double3x3_reduce/bn"
  type: BN
  blobs_lr: 1
  blobs_lr: 1
  weight_decay: 0
  weight_decay: 0
  bn_param {
    scale_filler {
      type: "constant"
      value: 1
    }
    shift_filler {
      type: "constant"
      value: 0
    }
  }
}
layers {
  bottom: "inception_3c/double3x3_reduce/bn"
  top: "inception_3c/double3x3_reduce/bn"
  name: "inception_3c/relu_double3x3_reduce"
  type: RELU
}
layers {
  bottom: "inception_3c/double3x3_reduce/bn"
  top: "inception_3c/double3x3a"
  name: "inception_3c/double3x3a"
  type: CONVOLUTION
  blobs_lr: 1
  weight_decay: 1
  convolution_param {
    num_output: 96
    pad: 1
    kernel_size: 3
    weight_filler {
      type: "xavier"
    }
    bias_term: false
  }
}
## BN
layers {
  bottom: "inception_3c/double3x3a"
  name: "inception_3c/double3x3a/bn"
  top: "inception_3c/double3x3a/bn"
  type: BN
  blobs_lr: 1
  blobs_lr: 1
  weight_decay: 0
  weight_decay: 0
  bn_param {
    scale_filler {
      type: "constant"
      value: 1
    }
    shift_filler {
      type: "constant"
      value: 0
    }
  }
}
layers {
  bottom: "inception_3c/double3x3a/bn"
  top: "inception_3c/double3x3a/bn"
  name: "inception_3c/relu_double3x3a"
  type: RELU
}
layers {
  bottom: "inception_3c/double3x3a/bn"
  top: "inception_3c/double3x3b"
  name: "inception_3c/double3x3b"
  type: CONVOLUTION
  blobs_lr: 1
  weight_decay: 1
  convolution_param {
    num_output: 96
    pad: 1
    stride: 2
    kernel_size: 3
    weight_filler {
      type: "xavier"
    }
    bias_term: false
  }
}
## BN
layers {
  bottom: "inception_3c/double3x3b"
  name: "inception_3c/double3x3b/bn"
  top: "inception_3c/double3x3b/bn"
  type: BN
  blobs_lr: 1
  blobs_lr: 1
  weight_decay: 0
  weight_decay: 0
  bn_param {
    scale_filler {
      type: "constant"
      value: 1
    }
    shift_filler {
      type: "constant"
      value: 0
    }
  }
}
layers {
  bottom: "inception_3c/double3x3b/bn"
  top: "inception_3c/double3x3b/bn"
  name: "inception_3c/relu_double3x3b"
  type: RELU
}
layers {
  bottom: "inception_3b/output"
  top: "inception_3c/pool/3x3_s2"
  name: "inception_3c/pool/3x3_s2"
  type: POOLING
  pooling_param {
    pool: MAX
    kernel_size: 3
    stride: 2
  }
}
layers {
  bottom: "inception_3c/3x3/bn"
  bottom: "inception_3c/double3x3b/bn"
  bottom: "inception_3c/pool/3x3_s2"
  top: "inception_3c/output"
  name: "inception_3c/output"
  type: CONCAT
}
layers {
  bottom: "inception_3c/output"
  top: "inception_4a/1x1"
  name: "inception_4a/1x1"
  type: CONVOLUTION
  blobs_lr: 1
  weight_decay: 1
  convolution_param {
    #num_output: 192
    num_output: 224
    kernel_size: 1
    weight_filler {
      type: "xavier"
    }
    bias_term: false
  }
}
## BN
layers {
  bottom: "inception_4a/1x1"
  name: "inception_4a/1x1/bn"
  top: "inception_4a/1x1/bn"
  type: BN
  blobs_lr: 1
  blobs_lr: 1
  weight_decay: 0
  weight_decay: 0
  bn_param {
    scale_filler {
      type: "constant"
      value: 1
    }
    shift_filler {
      type: "constant"
      value: 0
    }
  }
}
layers {
  bottom: "inception_4a/1x1/bn"
  top: "inception_4a/1x1/bn"
  name: "inception_4a/relu_1x1"
  type: RELU
}
layers {
  bottom: "inception_3c/output"
  top: "inception_4a/3x3_reduce"
  name: "inception_4a/3x3_reduce"
  type: CONVOLUTION
  blobs_lr: 1
  weight_decay: 1
  convolution_param {
    #num_output: 96
    num_output: 64
    kernel_size: 1
    weight_filler {
      type: "xavier"
    }
    bias_term: false
  }
}
## BN
layers {
  bottom: "inception_4a/3x3_reduce"
  name: "inception_4a/3x3_reduce/bn"
  top: "inception_4a/3x3_reduce/bn"
  type: BN
  blobs_lr: 1
  blobs_lr: 1
  weight_decay: 0
  weight_decay: 0
  bn_param {
    scale_filler {
      type: "constant"
      value: 1
    }
    shift_filler {
      type: "constant"
      value: 0
    }
  }
}
layers {
  bottom: "inception_4a/3x3_reduce/bn"
  top: "inception_4a/3x3_reduce/bn"
  name: "inception_4a/relu_3x3_reduce"
  type: RELU
}
layers {
  bottom: "inception_4a/3x3_reduce/bn"
  top: "inception_4a/3x3"
  name: "inception_4a/3x3"
  type: CONVOLUTION
  blobs_lr: 1
  weight_decay: 1
  convolution_param {
    #num_output: 208
    num_output: 96
    pad: 1
    kernel_size: 3
    weight_filler {
      type: "xavier"
    }
    bias_term: false
  }
}
## BN
layers {
  bottom: "inception_4a/3x3"
  name: "inception_4a/3x3/bn"
  top: "inception_4a/3x3/bn"
  type: BN
  blobs_lr: 1
  blobs_lr: 1
  weight_decay: 0
  weight_decay: 0
  bn_param {
    scale_filler {
      type: "constant"
      value: 1
    }
    shift_filler {
      type: "constant"
      value: 0
    }
  }
}
layers {
  bottom: "inception_4a/3x3/bn"
  top: "inception_4a/3x3/bn"
  name: "inception_4a/relu_3x3"
  type: RELU
}
layers {
  bottom: "inception_3c/output"
  top: "inception_4a/double3x3_reduce"
  name: "inception_4a/double3x3_reduce"
  type: CONVOLUTION
  blobs_lr: 1
  weight_decay: 1
  convolution_param {
    #num_output: 16
    num_output: 96
    kernel_size: 1
    weight_filler {
      type: "xavier"
    }
    bias_term: false
  }
}
## BN
layers {
  bottom: "inception_4a/double3x3_reduce"
  name: "inception_4a/double3x3_reduce/bn"
  top: "inception_4a/double3x3_reduce/bn"
  type: BN
  blobs_lr: 1
  blobs_lr: 1
  weight_decay: 0
  weight_decay: 0
  bn_param {
    scale_filler {
      type: "constant"
      value: 1
    }
    shift_filler {
      type: "constant"
      value: 0
    }
  }
}
layers {
  bottom: "inception_4a/double3x3_reduce/bn"
  top: "inception_4a/double3x3_reduce/bn"
  name: "inception_4a/relu_double3x3_reduce"
  type: RELU
}
layers {
  bottom: "inception_4a/double3x3_reduce/bn"
  top: "inception_4a/double3x3a"
  name: "inception_4a/double3x3a"
  type: CONVOLUTION
  blobs_lr: 1
  weight_decay: 1
  convolution_param {
    #num_output: 48
    num_output: 128
    pad: 1
    kernel_size: 3
    weight_filler {
      type: "xavier"
    }
    bias_term: false
  }
}
## BN
layers {
  bottom: "inception_4a/double3x3a"
  name: "inception_4a/double3x3a/bn"
  top: "inception_4a/double3x3a/bn"
  type: BN
  blobs_lr: 1
  blobs_lr: 1
  weight_decay: 0
  weight_decay: 0
  bn_param {
    scale_filler {
      type: "constant"
      value: 1
    }
    shift_filler {
      type: "constant"
      value: 0
    }
  }
}
layers {
  bottom: "inception_4a/double3x3a/bn"
  top: "inception_4a/double3x3a/bn"
  name: "inception_4a/relu_double3x3a"
  type: RELU
}
layers {
  bottom: "inception_4a/double3x3a/bn"
  top: "inception_4a/double3x3b"
  name: "inception_4a/double3x3b"
  type: CONVOLUTION
  blobs_lr: 1
  weight_decay: 1
  convolution_param {
    num_output: 128
    pad: 1
    kernel_size: 3
    weight_filler {
      type: "xavier"
    }
    bias_term: false
  }
}
## BN
layers {
  bottom: "inception_4a/double3x3b"
  name: "inception_4a/double3x3b/bn"
  top: "inception_4a/double3x3b/bn"
  type: BN
  blobs_lr: 1
  blobs_lr: 1
  weight_decay: 0
  weight_decay: 0
  bn_param {
    scale_filler {
      type: "constant"
      value: 1
    }
    shift_filler {
      type: "constant"
      value: 0
    }
  }
}
layers {
  bottom: "inception_4a/double3x3b/bn"
  top: "inception_4a/double3x3b/bn"
  name: "inception_4a/relu_double3x3b"
  type: RELU
}
layers {
  bottom: "inception_3c/output"
  top: "inception_4a/pool"
  name: "inception_4a/pool"
  type: POOLING
  pooling_param {
    #pool: MAX
    pool: AVE
    kernel_size: 3
    stride: 1
    pad: 1
  }
}
layers {
  bottom: "inception_4a/pool"
  top: "inception_4a/pool_proj"
  name: "inception_4a/pool_proj"
  type: CONVOLUTION
  blobs_lr: 1
  weight_decay: 1
  convolution_param {
    #num_output: 64
    num_output: 128
    kernel_size: 1
    weight_filler {
      type: "xavier"
    }
    bias_term: false
  }
}
## BN
layers {
  bottom: "inception_4a/pool_proj"
  name: "inception_4a/pool_proj/bn"
  top: "inception_4a/pool_proj/bn"
  type: BN
  blobs_lr: 1
  blobs_lr: 1
  weight_decay: 0
  weight_decay: 0
  bn_param {
    scale_filler {
      type: "constant"
      value: 1
    }
    shift_filler {
      type: "constant"
      value: 0
    }
  }
}
layers {
  bottom: "inception_4a/pool_proj/bn"
  top: "inception_4a/pool_proj/bn"
  name: "inception_4a/relu_pool_proj"
  type: RELU
}
layers {
  bottom: "inception_4a/1x1/bn"
  bottom: "inception_4a/3x3/bn"
  bottom: "inception_4a/double3x3b/bn"
  bottom: "inception_4a/pool_proj/bn"
  top: "inception_4a/output"
  name: "inception_4a/output"
  type: CONCAT
}
layers {
  bottom: "inception_4a/output"
  top: "loss1/ave_pool"
  name: "loss1/ave_pool"
  type: POOLING
  pooling_param {
    pool: AVE
    kernel_size: 5
    stride: 3
  }
}
layers {
  bottom: "loss1/ave_pool"
  top: "loss1/conv"
  name: "loss1/conv"
  type: CONVOLUTION
  blobs_lr: 1
  weight_decay: 1
  convolution_param {
    num_output: 128
    kernel_size: 1
    weight_filler {
      type: "xavier"
    }
    bias_term: false
  }
}
## BN
layers {
  bottom: "loss1/conv"
  name: "loss1/conv/bn"
  top: "loss1/conv/bn"
  type: BN
  blobs_lr: 1
  blobs_lr: 1
  weight_decay: 0
  weight_decay: 0
  bn_param {
    scale_filler {
      type: "constant"
      value: 1
    }
    shift_filler {
      type: "constant"
      value: 0
    }
  }
}
layers {
  bottom: "loss1/conv/bn"
  top: "loss1/conv/bn"
  name: "loss1/relu_conv"
  type: RELU
}
layers {
  bottom: "loss1/conv/bn"
  top: "loss1/fc"
  name: "loss1/fc"
  type: INNER_PRODUCT
  blobs_lr: 1
  weight_decay: 1
  inner_product_param {
    num_output: 1024
    weight_filler {
      type: "xavier"
    }
    bias_term: false
  }
}
## BN
layers {
  bottom: "loss1/fc"
  name: "loss1/fc/bn"
  top: "loss1/fc/bn"
  type: BN
  blobs_lr: 1
  blobs_lr: 1
  weight_decay: 0
  weight_decay: 0
  bn_param {
    scale_filler {
      type: "constant"
      value: 1
    }
    shift_filler {
      type: "constant"
      value: 0
    }
  }
}
layers {
  bottom: "loss1/fc/bn"
  top: "loss1/fc/bn"
  name: "loss1/relu_fc"
  type: RELU
}
layers {
  bottom: "loss1/fc/bn"
  top: "loss1/classifier"
  name: "loss1/classifier"
  type: INNER_PRODUCT
  blobs_lr: 1
  blobs_lr: 2
  weight_decay: 1
  weight_decay: 0
  inner_product_param {
    num_output: 1000
    weight_filler {
      type: "xavier"
    }
    bias_filler {
      type: "constant"
    }
  }
}
layers {
  bottom: "loss1/classifier"
  bottom: "label"
  top: "loss1/loss1"
  name: "loss1/loss"
  type: SOFTMAX_LOSS
  loss_weight: 0.3
}
layers {
  bottom: "loss1/classifier"
  bottom: "label"
  top: "loss1/top-1"
  name: "loss1/top-1"
  type: ACCURACY
  include {
    phase: TEST
  }
}
layers {
  bottom: "loss1/classifier"
  bottom: "label"
  top: "loss1/top-5"
  name: "loss1/top-5"
  type: ACCURACY
  accuracy_param {
    top_k: 5
  }
  include {
    phase: TEST
  }
}
layers {
  bottom: "inception_4a/output"
  top: "inception_4b/1x1"
  name: "inception_4b/1x1"
  type: CONVOLUTION
  blobs_lr: 1
  weight_decay: 1
  convolution_param {
    #num_output: 160
    num_output: 192
    kernel_size: 1
    weight_filler {
      type: "xavier"
    }
    bias_term: false
  }
}
## BN
layers {
  bottom: "inception_4b/1x1"
  name: "inception_4b/1x1/bn"
  top: "inception_4b/1x1/bn"
  type: BN
  blobs_lr: 1
  blobs_lr: 1
  weight_decay: 0
  weight_decay: 0
  bn_param {
    scale_filler {
      type: "constant"
      value: 1
    }
    shift_filler {
      type: "constant"
      value: 0
    }
  }
}
layers {
  bottom: "inception_4b/1x1/bn"
  top: "inception_4b/1x1/bn"
  name: "inception_4b/relu_1x1"
  type: RELU
}
layers {
  bottom: "inception_4a/output"
  top: "inception_4b/3x3_reduce"
  name: "inception_4b/3x3_reduce"
  type: CONVOLUTION
  blobs_lr: 1
  weight_decay: 1
  convolution_param {
    #num_output: 112
    num_output: 96
    kernel_size: 1
    weight_filler {
      type: "xavier"
    }
    bias_term: false
  }
}
## BN
layers {
  bottom: "inception_4b/3x3_reduce"
  name: "inception_4b/3x3_reduce/bn"
  top: "inception_4b/3x3_reduce/bn"
  type: BN
  blobs_lr: 1
  blobs_lr: 1
  weight_decay: 0
  weight_decay: 0
  bn_param {
    scale_filler {
      type: "constant"
      value: 1
    }
    shift_filler {
      type: "constant"
      value: 0
    }
  }
}
layers {
  bottom: "inception_4b/3x3_reduce/bn"
  top: "inception_4b/3x3_reduce/bn"
  name: "inception_4b/relu_3x3_reduce"
  type: RELU
}
layers {
  bottom: "inception_4b/3x3_reduce/bn"
  top: "inception_4b/3x3"
  name: "inception_4b/3x3"
  type: CONVOLUTION
  blobs_lr: 1
  weight_decay: 1
  convolution_param {
    #num_output: 224
    num_output: 128
    pad: 1
    kernel_size: 3
    weight_filler {
      type: "xavier"
    }
    bias_term: false
  }
}
## BN
layers {
  bottom: "inception_4b/3x3"
  name: "inception_4b/3x3/bn"
  top: "inception_4b/3x3/bn"
  type: BN
  blobs_lr: 1
  blobs_lr: 1
  weight_decay: 0
  weight_decay: 0
  bn_param {
    scale_filler {
      type: "constant"
      value: 1
    }
    shift_filler {
      type: "constant"
      value: 0
    }
  }
}
layers {
  bottom: "inception_4b/3x3/bn"
  top: "inception_4b/3x3/bn"
  name: "inception_4b/relu_3x3"
  type: RELU
}
layers {
  bottom: "inception_4a/output"
  top: "inception_4b/double3x3_reduce"
  name: "inception_4b/double3x3_reduce"
  type: CONVOLUTION
  blobs_lr: 1
  weight_decay: 1
  convolution_param {
    #num_output: 24
    num_output: 96
    kernel_size: 1
    weight_filler {
      type: "xavier"
    }
    bias_term: false
  }
}
## BN
layers {
  bottom: "inception_4b/double3x3_reduce"
  name: "inception_4b/double3x3_reduce/bn"
  top: "inception_4b/double3x3_reduce/bn"
  type: BN
  blobs_lr: 1
  blobs_lr: 1
  weight_decay: 0
  weight_decay: 0
  bn_param {
    scale_filler {
      type: "constant"
      value: 1
    }
    shift_filler {
      type: "constant"
      value: 0
    }
  }
}
layers {
  bottom: "inception_4b/double3x3_reduce/bn"
  top: "inception_4b/double3x3_reduce/bn"
  name: "inception_4b/relu_double3x3_reduce"
  type: RELU
}
layers {
  bottom: "inception_4b/double3x3_reduce/bn"
  top: "inception_4b/double3x3a"
  name: "inception_4b/double3x3a"
  type: CONVOLUTION
  blobs_lr: 1
  weight_decay: 1
  convolution_param {
    #num_output: 64
    num_output: 128
    pad: 1
    kernel_size: 3
    weight_filler {
      type: "xavier"
    }
    bias_term: false
  }
}
## BN
layers {
  bottom: "inception_4b/double3x3a"
  name: "inception_4b/double3x3a/bn"
  top: "inception_4b/double3x3a/bn"
  type: BN
  blobs_lr: 1
  blobs_lr: 1
  weight_decay: 0
  weight_decay: 0
  bn_param {
    scale_filler {
      type: "constant"
      value: 1
    }
    shift_filler {
      type: "constant"
      value: 0
    }
  }
}
layers {
  bottom: "inception_4b/double3x3a/bn"
  top: "inception_4b/double3x3a/bn"
  name: "inception_4b/relu_double3x3a"
  type: RELU
}
layers {
  bottom: "inception_4b/double3x3a/bn"
  top: "inception_4b/double3x3b"
  name: "inception_4b/double3x3b"
  type: CONVOLUTION
  blobs_lr: 1
  weight_decay: 1
  convolution_param {
    num_output: 128
    pad: 1
    kernel_size: 3
    weight_filler {
      type: "xavier"
    }
    bias_term: false
  }
}
## BN
layers {
  bottom: "inception_4b/double3x3b"
  name: "inception_4b/double3x3b/bn"
  top: "inception_4b/double3x3b/bn"
  type: BN
  blobs_lr: 1
  blobs_lr: 1
  weight_decay: 0
  weight_decay: 0
  bn_param {
    scale_filler {
      type: "constant"
      value: 1
    }
    shift_filler {
      type: "constant"
      value: 0
    }
  }
}
layers {
  bottom: "inception_4b/double3x3b/bn"
  top: "inception_4b/double3x3b/bn"
  name: "inception_4b/relu_double3x3b"
  type: RELU
}
layers {
  bottom: "inception_4a/output"
  top: "inception_4b/pool"
  name: "inception_4b/pool"
  type: POOLING
  pooling_param {
    #pool: MAX
    pool: AVE
    kernel_size: 3
    stride: 1
    pad: 1
  }
}
layers {
  bottom: "inception_4b/pool"
  top: "inception_4b/pool_proj"
  name: "inception_4b/pool_proj"
  type: CONVOLUTION
  blobs_lr: 1
  weight_decay: 1
  convolution_param {
    num_output: 128
    kernel_size: 1
    weight_filler {
      type: "xavier"
    }
    bias_term: false
  }
}
## BN
layers {
  bottom: "inception_4b/pool_proj"
  name: "inception_4b/pool_proj/bn"
  top: "inception_4b/pool_proj/bn"
  type: BN
  blobs_lr: 1
  blobs_lr: 1
  weight_decay: 0
  weight_decay: 0
  bn_param {
    scale_filler {
      type: "constant"
      value: 1
    }
    shift_filler {
      type: "constant"
      value: 0
    }
  }
}
layers {
  bottom: "inception_4b/pool_proj/bn"
  top: "inception_4b/pool_proj/bn"
  name: "inception_4b/relu_pool_proj"
  type: RELU
}
layers {
  bottom: "inception_4b/1x1/bn"
  bottom: "inception_4b/3x3/bn"
  bottom: "inception_4b/double3x3b/bn"
  bottom: "inception_4b/pool_proj/bn"
  top: "inception_4b/output"
  name: "inception_4b/output"
  type: CONCAT
}
layers {
  bottom: "inception_4b/output"
  top: "inception_4c/1x1"
  name: "inception_4c/1x1"
  type: CONVOLUTION
  blobs_lr: 1
  weight_decay: 1
  convolution_param {
    #num_output: 128
    num_output: 160
    kernel_size: 1
    weight_filler {
      type: "xavier"
    }
    bias_term: false
  }
}
## BN
layers {
  bottom: "inception_4c/1x1"
  name: "inception_4c/1x1/bn"
  top: "inception_4c/1x1/bn"
  type: BN
  blobs_lr: 1
  blobs_lr: 1
  weight_decay: 0
  weight_decay: 0
  bn_param {
    scale_filler {
      type: "constant"
      value: 1
    }
    shift_filler {
      type: "constant"
      value: 0
    }
  }
}
layers {
  bottom: "inception_4c/1x1/bn"
  top: "inception_4c/1x1/bn"
  name: "inception_4c/relu_1x1"
  type: RELU
}
layers {
  bottom: "inception_4b/output"
  top: "inception_4c/3x3_reduce"
  name: "inception_4c/3x3_reduce"
  type: CONVOLUTION
  blobs_lr: 1
  weight_decay: 1
  convolution_param {
    num_output: 128
    kernel_size: 1
    weight_filler {
      type: "xavier"
    }
    bias_term: false
  }
}
## BN
layers {
  bottom: "inception_4c/3x3_reduce"
  name: "inception_4c/3x3_reduce/bn"
  top: "inception_4c/3x3_reduce/bn"
  type: BN
  blobs_lr: 1
  blobs_lr: 1
  weight_decay: 0
  weight_decay: 0
  bn_param {
    scale_filler {
      type: "constant"
      value: 1
    }
    shift_filler {
      type: "constant"
      value: 0
    }
  }
}
layers {
  bottom: "inception_4c/3x3_reduce/bn"
  top: "inception_4c/3x3_reduce/bn"
  name: "inception_4c/relu_3x3_reduce"
  type: RELU
}
layers {
  bottom: "inception_4c/3x3_reduce/bn"
  top: "inception_4c/3x3"
  name: "inception_4c/3x3"
  type: CONVOLUTION
  blobs_lr: 1
  weight_decay: 1
  convolution_param {
    num_output: 160
    pad: 1
    kernel_size: 3
    weight_filler {
      type: "xavier"
    }
    bias_term: false
  }
}
## BN
layers {
  bottom: "inception_4c/3x3"
  name: "inception_4c/3x3/bn"
  top: "inception_4c/3x3/bn"
  type: BN
  blobs_lr: 1
  blobs_lr: 1
  weight_decay: 0
  weight_decay: 0
  bn_param {
    scale_filler {
      type: "constant"
      value: 1
    }
    shift_filler {
      type: "constant"
      value: 0
    }
  }
}
layers {
  bottom: "inception_4c/3x3/bn"
  top: "inception_4c/3x3/bn"
  name: "inception_4c/relu_3x3"
  type: RELU
}
layers {
  bottom: "inception_4b/output"
  top: "inception_4c/double3x3_reduce"
  name: "inception_4c/double3x3_reduce"
  type: CONVOLUTION
  blobs_lr: 1
  weight_decay: 1
  convolution_param {
    #num_output: 24
    num_output: 128
    kernel_size: 1
    weight_filler {
      type: "xavier"
    }
    bias_term: false
  }
}
## BN
layers {
  bottom: "inception_4c/double3x3_reduce"
  name: "inception_4c/double3x3_reduce/bn"
  top: "inception_4c/double3x3_reduce/bn"
  type: BN
  blobs_lr: 1
  blobs_lr: 1
  weight_decay: 0
  weight_decay: 0
  bn_param {
    scale_filler {
      type: "constant"
      value: 1
    }
    shift_filler {
      type: "constant"
      value: 0
    }
  }
}
layers {
  bottom: "inception_4c/double3x3_reduce/bn"
  top: "inception_4c/double3x3_reduce/bn"
  name: "inception_4c/relu_double3x3_reduce"
  type: RELU
}
layers {
  bottom: "inception_4c/double3x3_reduce/bn"
  top: "inception_4c/double3x3a"
  name: "inception_4c/double3x3a"
  type: CONVOLUTION
  blobs_lr: 1
  weight_decay: 1
  convolution_param {
    #num_output: 64
    num_output: 160
    pad: 1
    kernel_size: 3
    weight_filler {
      type: "xavier"
    }
    bias_term: false
  }
}
## BN
layers {
  bottom: "inception_4c/double3x3a"
  name: "inception_4c/double3x3a/bn"
  top: "inception_4c/double3x3a/bn"
  type: BN
  blobs_lr: 1
  blobs_lr: 1
  weight_decay: 0
  weight_decay: 0
  bn_param {
    scale_filler {
      type: "constant"
      value: 1
    }
    shift_filler {
      type: "constant"
      value: 0
    }
  }
}
layers {
  bottom: "inception_4c/double3x3a/bn"
  top: "inception_4c/double3x3a/bn"
  name: "inception_4c/relu_double3x3a"
  type: RELU
}
layers {
  bottom: "inception_4c/double3x3a/bn"
  top: "inception_4c/double3x3b"
  name: "inception_4c/double3x3b"
  type: CONVOLUTION
  blobs_lr: 1
  weight_decay: 1
  convolution_param {
    num_output: 160
    pad: 1
    kernel_size: 3
    weight_filler {
      type: "xavier"
    }
    bias_term: false
  }
}
## BN
layers {
  bottom: "inception_4c/double3x3b"
  name: "inception_4c/double3x3b/bn"
  top: "inception_4c/double3x3b/bn"
  type: BN
  blobs_lr: 1
  blobs_lr: 1
  weight_decay: 0
  weight_decay: 0
  bn_param {
    scale_filler {
      type: "constant"
      value: 1
    }
    shift_filler {
      type: "constant"
      value: 0
    }
  }
}
layers {
  bottom: "inception_4c/double3x3b/bn"
  top: "inception_4c/double3x3b/bn"
  name: "inception_4c/relu_double3x3b"
  type: RELU
}
layers {
  bottom: "inception_4b/output"
  top: "inception_4c/pool"
  name: "inception_4c/pool"
  type: POOLING
  pooling_param {
    #pool: MAX
    pool: AVE
    kernel_size: 3
    stride: 1
    pad: 1
  }
}
layers {
  bottom: "inception_4c/pool"
  top: "inception_4c/pool_proj"
  name: "inception_4c/pool_proj"
  type: CONVOLUTION
  blobs_lr: 1
  weight_decay: 1
  convolution_param {
    #num_output: 64
    num_output: 128
    kernel_size: 1
    weight_filler {
      type: "xavier"
    }
    bias_term: false
  }
}
## BN
layers {
  bottom: "inception_4c/pool_proj"
  name: "inception_4c/pool_proj/bn"
  top: "inception_4c/pool_proj/bn"
  type: BN
  blobs_lr: 1
  blobs_lr: 1
  weight_decay: 0
  weight_decay: 0
  bn_param {
    scale_filler {
      type: "constant"
      value: 1
    }
    shift_filler {
      type: "constant"
      value: 0
    }
  }
}
layers {
  bottom: "inception_4c/pool_proj/bn"
  top: "inception_4c/pool_proj/bn"
  name: "inception_4c/relu_pool_proj"
  type: RELU
}
layers {
  bottom: "inception_4c/1x1/bn"
  bottom: "inception_4c/3x3/bn"
  bottom: "inception_4c/double3x3b/bn"
  bottom: "inception_4c/pool_proj/bn"
  top: "inception_4c/output"
  name: "inception_4c/output"
  type: CONCAT
}
layers {
  bottom: "inception_4c/output"
  top: "inception_4d/1x1"
  name: "inception_4d/1x1"
  type: CONVOLUTION
  blobs_lr: 1
  weight_decay: 1
  convolution_param {
    num_output: 96
    kernel_size: 1
    weight_filler {
      type: "xavier"
    }
    bias_term: false
  }
}
## BN
layers {
  bottom: "inception_4d/1x1"
  name: "inception_4d/1x1/bn"
  top: "inception_4d/1x1/bn"
  type: BN
  blobs_lr: 1
  blobs_lr: 1
  weight_decay: 0
  weight_decay: 0
  bn_param {
    scale_filler {
      type: "constant"
      value: 1
    }
    shift_filler {
      type: "constant"
      value: 0
    }
  }
}
layers {
  bottom: "inception_4d/1x1/bn"
  top: "inception_4d/1x1/bn"
  name: "inception_4d/relu_1x1"
  type: RELU
}
layers {
  bottom: "inception_4c/output"
  top: "inception_4d/3x3_reduce"
  name: "inception_4d/3x3_reduce"
  type: CONVOLUTION
  blobs_lr: 1
  weight_decay: 1
  convolution_param {
    #num_output: 144
    num_output: 128
    kernel_size: 1
    weight_filler {
      type: "xavier"
    }
    bias_term: false
  }
}
## BN
layers {
  bottom: "inception_4d/3x3_reduce"
  name: "inception_4d/3x3_reduce/bn"
  top: "inception_4d/3x3_reduce/bn"
  type: BN
  blobs_lr: 1
  blobs_lr: 1
  weight_decay: 0
  weight_decay: 0
  bn_param {
    scale_filler {
      type: "constant"
      value: 1
    }
    shift_filler {
      type: "constant"
      value: 0
    }
  }
}
layers {
  bottom: "inception_4d/3x3_reduce/bn"
  top: "inception_4d/3x3_reduce/bn"
  name: "inception_4d/relu_3x3_reduce"
  type: RELU
}
layers {
  bottom: "inception_4d/3x3_reduce/bn"
  top: "inception_4d/3x3"
  name: "inception_4d/3x3"
  type: CONVOLUTION
  blobs_lr: 1
  weight_decay: 1
  convolution_param {
    #num_output: 288
    num_output: 192
    pad: 1
    kernel_size: 3
    weight_filler {
      type: "xavier"
    }
    bias_term: false
  }
}
## BN
layers {
  bottom: "inception_4d/3x3"
  name: "inception_4d/3x3/bn"
  top: "inception_4d/3x3/bn"
  type: BN
  blobs_lr: 1
  blobs_lr: 1
  weight_decay: 0
  weight_decay: 0
  bn_param {
    scale_filler {
      type: "constant"
      value: 1
    }
    shift_filler {
      type: "constant"
      value: 0
    }
  }
}
layers {
  bottom: "inception_4d/3x3/bn"
  top: "inception_4d/3x3/bn"
  name: "inception_4d/relu_3x3"
  type: RELU
}
layers {
  bottom: "inception_4c/output"
  top: "inception_4d/double3x3_reduce"
  name: "inception_4d/double3x3_reduce"
  type: CONVOLUTION
  blobs_lr: 1
  weight_decay: 1
  convolution_param {
    #num_output: 32
    num_output: 160
    kernel_size: 1
    weight_filler {
      type: "xavier"
    }
    bias_term: false
  }
}
## BN
layers {
  bottom: "inception_4d/double3x3_reduce"
  name: "inception_4d/double3x3_reduce/bn"
  top: "inception_4d/double3x3_reduce/bn"
  type: BN
  blobs_lr: 1
  blobs_lr: 1
  weight_decay: 0
  weight_decay: 0
  bn_param {
    scale_filler {
      type: "constant"
      value: 1
    }
    shift_filler {
      type: "constant"
      value: 0
    }
  }
}
layers {
  bottom: "inception_4d/double3x3_reduce/bn"
  top: "inception_4d/double3x3_reduce/bn"
  name: "inception_4d/relu_double3x3_reduce"
  type: RELU
}
layers {
  bottom: "inception_4d/double3x3_reduce/bn"
  top: "inception_4d/double3x3a"
  name: "inception_4d/double3x3a"
  type: CONVOLUTION
  blobs_lr: 1
  weight_decay: 1
  convolution_param {
    #num_output: 64
    num_output: 192
    pad: 1
    kernel_size: 3
    weight_filler {
      type: "xavier"
    }
    bias_term: false
  }
}
## BN
layers {
  bottom: "inception_4d/double3x3a"
  name: "inception_4d/double3x3a/bn"
  top: "inception_4d/double3x3a/bn"
  type: BN
  blobs_lr: 1
  blobs_lr: 1
  weight_decay: 0
  weight_decay: 0
  bn_param {
    scale_filler {
      type: "constant"
      value: 1
    }
    shift_filler {
      type: "constant"
      value: 0
    }
  }
}
layers {
  bottom: "inception_4d/double3x3a/bn"
  top: "inception_4d/double3x3a/bn"
  name: "inception_4d/relu_double3x3a"
  type: RELU
}
layers {
  bottom: "inception_4d/double3x3a/bn"
  top: "inception_4d/double3x3b"
  name: "inception_4d/double3x3b"
  type: CONVOLUTION
  blobs_lr: 1
  weight_decay: 1
  convolution_param {
    num_output: 192
    pad: 1
    kernel_size: 3
    weight_filler {
      type: "xavier"
    }
    bias_term: false
  }
}
## BN
layers {
  bottom: "inception_4d/double3x3b"
  name: "inception_4d/double3x3b/bn"
  top: "inception_4d/double3x3b/bn"
  type: BN
  blobs_lr: 1
  blobs_lr: 1
  weight_decay: 0
  weight_decay: 0
  bn_param {
    scale_filler {
      type: "constant"
      value: 1
    }
    shift_filler {
      type: "constant"
      value: 0
    }
  }
}
layers {
  bottom: "inception_4d/double3x3b/bn"
  top: "inception_4d/double3x3b/bn"
  name: "inception_4d/relu_double3x3b"
  type: RELU
}
layers {
  bottom: "inception_4c/output"
  top: "inception_4d/pool"
  name: "inception_4d/pool"
  type: POOLING
  pooling_param {
    #pool: MAX
    pool: AVE
    kernel_size: 3
    stride: 1
    pad: 1
  }
}
layers {
  bottom: "inception_4d/pool"
  top: "inception_4d/pool_proj"
  name: "inception_4d/pool_proj"
  type: CONVOLUTION
  blobs_lr: 1
  weight_decay: 1
  convolution_param {
    #num_output: 64
    num_output: 128
    kernel_size: 1
    weight_filler {
      type: "xavier"
    }
    bias_term: false
  }
}
## BN
layers {
  bottom: "inception_4d/pool_proj"
  name: "inception_4d/pool_proj/bn"
  top: "inception_4d/pool_proj/bn"
  type: BN
  blobs_lr: 1
  blobs_lr: 1
  weight_decay: 0
  weight_decay: 0
  bn_param {
    scale_filler {
      type: "constant"
      value: 1
    }
    shift_filler {
      type: "constant"
      value: 0
    }
  }
}
layers {
  bottom: "inception_4d/pool_proj/bn"
  top: "inception_4d/pool_proj/bn"
  name: "inception_4d/relu_pool_proj"
  type: RELU
}
layers {
  bottom: "inception_4d/1x1/bn"
  bottom: "inception_4d/3x3/bn"
  bottom: "inception_4d/double3x3b/bn"
  bottom: "inception_4d/pool_proj/bn"
  top: "inception_4d/output"
  name: "inception_4d/output"
  type: CONCAT
}
layers {
  bottom: "inception_4d/output"
  top: "loss2/ave_pool"
  name: "loss2/ave_pool"
  type: POOLING
  pooling_param {
    pool: AVE
    kernel_size: 5
    stride: 3
  }
}
layers {
  bottom: "loss2/ave_pool"
  top: "loss2/conv"
  name: "loss2/conv"
  type: CONVOLUTION
  blobs_lr: 1
  weight_decay: 1
  convolution_param {
    num_output: 128
    kernel_size: 1
    weight_filler {
      type: "xavier"
    }
    bias_term: false
  }
}
## BN
layers {
  bottom: "loss2/conv"
  name: "loss2/conv/bn"
  top: "loss2/conv/bn"
  type: BN
  blobs_lr: 1
  blobs_lr: 1
  weight_decay: 0
  weight_decay: 0
  bn_param {
    scale_filler {
      type: "constant"
      value: 1
    }
    shift_filler {
      type: "constant"
      value: 0
    }
  }
}
layers {
  bottom: "loss2/conv/bn"
  top: "loss2/conv/bn"
  name: "loss2/relu_conv"
  type: RELU
}
layers {
  bottom: "loss2/conv/bn"
  top: "loss2/fc"
  name: "loss2/fc"
  type: INNER_PRODUCT
  blobs_lr: 1
  weight_decay: 1
  inner_product_param {
    num_output: 1024
    weight_filler {
      type: "xavier"
    }
    bias_term: false
  }
}
## BN
layers {
  bottom: "loss2/fc"
  name: "loss2/fc/bn"
  top: "loss2/fc/bn"
  type: BN
  blobs_lr: 1
  blobs_lr: 1
  weight_decay: 0
  weight_decay: 0
  bn_param {
    scale_filler {
      type: "constant"
      value: 1
    }
    shift_filler {
      type: "constant"
      value: 0
    }
  }
}
layers {
  bottom: "loss2/fc/bn"
  top: "loss2/fc/bn"
  name: "loss2/relu_fc"
  type: RELU
}
layers {
  bottom: "loss2/fc/bn"
  top: "loss2/classifier"
  name: "loss2/classifier"
  type: INNER_PRODUCT
  blobs_lr: 1
  blobs_lr: 2
  weight_decay: 1
  weight_decay: 0
  inner_product_param {
    num_output: 1000
    weight_filler {
      type: "xavier"
    }
    bias_filler {
      type: "constant"
    }
  }
}
layers {
  bottom: "loss2/classifier"
  bottom: "label"
  top: "loss2/loss1"
  name: "loss2/loss"
  type: SOFTMAX_LOSS
  loss_weight: 0.3
}
layers {
  bottom: "loss2/classifier"
  bottom: "label"
  top: "loss2/top-1"
  name: "loss2/top-1"
  type: ACCURACY
  include {
    phase: TEST
  }
}
layers {
  bottom: "loss2/classifier"
  bottom: "label"
  top: "loss2/top-5"
  name: "loss2/top-5"
  type: ACCURACY
  accuracy_param {
    top_k: 5
  }
  include {
    phase: TEST
  }
}
layers {
  bottom: "inception_4d/output"
  top: "inception_4e/3x3_reduce"
  name: "inception_4e/3x3_reduce"
  type: CONVOLUTION
  blobs_lr: 1
  weight_decay: 1
  convolution_param {
    #num_output: 160
    num_output: 128
    kernel_size: 1
    weight_filler {
      type: "xavier"
    }
    bias_term: false
  }
}
## BN
layers {
  bottom: "inception_4e/3x3_reduce"
  name: "inception_4e/3x3_reduce/bn"
  top: "inception_4e/3x3_reduce/bn"
  type: BN
  blobs_lr: 1
  blobs_lr: 1
  weight_decay: 0
  weight_decay: 0
  bn_param {
    scale_filler {
      type: "constant"
      value: 1
    }
    shift_filler {
      type: "constant"
      value: 0
    }
  }
}
layers {
  bottom: "inception_4e/3x3_reduce/bn"
  top: "inception_4e/3x3_reduce/bn"
  name: "inception_4e/relu_3x3_reduce"
  type: RELU
}
layers {
  bottom: "inception_4e/3x3_reduce/bn"
  top: "inception_4e/3x3"
  name: "inception_4e/3x3"
  type: CONVOLUTION
  blobs_lr: 1
  weight_decay: 1
  convolution_param {
    #num_output: 320
    num_output: 192
    pad: 1
    stride: 2
    kernel_size: 3
    weight_filler {
      type: "xavier"
    }
    bias_term: false
  }
}
## BN
layers {
  bottom: "inception_4e/3x3"
  name: "inception_4e/3x3/bn"
  top: "inception_4e/3x3/bn"
  type: BN
  blobs_lr: 1
  blobs_lr: 1
  weight_decay: 0
  weight_decay: 0
  bn_param {
    scale_filler {
      type: "constant"
      value: 1
    }
    shift_filler {
      type: "constant"
      value: 0
    }
  }
}
layers {
  bottom: "inception_4e/3x3/bn"
  top: "inception_4e/3x3/bn"
  name: "inception_4e/relu_3x3"
  type: RELU
}
layers {
  bottom: "inception_4d/output"
  top: "inception_4e/double3x3_reduce"
  name: "inception_4e/double3x3_reduce"
  type: CONVOLUTION
  blobs_lr: 1
  weight_decay: 1
  convolution_param {
    #num_output: 32
    num_output: 192
    kernel_size: 1
    weight_filler {
      type: "xavier"
    }
    bias_term: false
  }
}
## BN
layers {
  bottom: "inception_4e/double3x3_reduce"
  name: "inception_4e/double3x3_reduce/bn"
  top: "inception_4e/double3x3_reduce/bn"
  type: BN
  blobs_lr: 1
  blobs_lr: 1
  weight_decay: 0
  weight_decay: 0
  bn_param {
    scale_filler {
      type: "constant"
      value: 1
    }
    shift_filler {
      type: "constant"
      value: 0
    }
  }
}
layers {
  bottom: "inception_4e/double3x3_reduce/bn"
  top: "inception_4e/double3x3_reduce/bn"
  name: "inception_4e/relu_double3x3_reduce"
  type: RELU
}
layers {
  bottom: "inception_4e/double3x3_reduce/bn"
  top: "inception_4e/double3x3a"
  name: "inception_4e/double3x3a"
  type: CONVOLUTION
  blobs_lr: 1
  weight_decay: 1
  convolution_param {
    #num_output: 128
    num_output: 256
    pad: 1
    kernel_size: 3
    weight_filler {
      type: "xavier"
    }
    bias_term: false
  }
}
## BN
layers {
  bottom: "inception_4e/double3x3a"
  name: "inception_4e/double3x3a/bn"
  top: "inception_4e/double3x3a/bn"
  type: BN
  blobs_lr: 1
  blobs_lr: 1
  weight_decay: 0
  weight_decay: 0
  bn_param {
    scale_filler {
      type: "constant"
      value: 1
    }
    shift_filler {
      type: "constant"
      value: 0
    }
  }
}
layers {
  bottom: "inception_4e/double3x3a/bn"
  top: "inception_4e/double3x3a/bn"
  name: "inception_4e/relu_double3x3a"
  type: RELU
}
layers {
  bottom: "inception_4e/double3x3a/bn"
  top: "inception_4e/double3x3b"
  name: "inception_4e/double3x3b"
  type: CONVOLUTION
  blobs_lr: 1
  weight_decay: 1
  convolution_param {
    num_output: 256
    pad: 1
    stride: 2
    kernel_size: 3
    weight_filler {
      type: "xavier"
    }
    bias_term: false
  }
}
## BN
layers {
  bottom: "inception_4e/double3x3b"
  name: "inception_4e/double3x3b/bn"
  top: "inception_4e/double3x3b/bn"
  type: BN
  blobs_lr: 1
  blobs_lr: 1
  weight_decay: 0
  weight_decay: 0
  bn_param {
    scale_filler {
      type: "constant"
      value: 1
    }
    shift_filler {
      type: "constant"
      value: 0
    }
  }
}
layers {
  bottom: "inception_4e/double3x3b/bn"
  top: "inception_4e/double3x3b/bn"
  name: "inception_4e/relu_double3x3b"
  type: RELU
}
layers {
  bottom: "inception_4d/output"
  top: "inception_4e/pool/3x3_s2"
  name: "inception_4e/pool/3x3_s2"
  type: POOLING
  pooling_param {
    pool: MAX
    kernel_size: 3
    stride: 2
  }
}
layers {
  bottom: "inception_4e/3x3/bn"
  bottom: "inception_4e/double3x3b/bn"
  bottom: "inception_4e/pool/3x3_s2"
  top: "inception_4e/output"
  name: "inception_4e/output"
  type: CONCAT
}
layers {
  bottom: "inception_4e/output"
  top: "inception_5a/1x1"
  name: "inception_5a/1x1"
  type: CONVOLUTION
  blobs_lr: 1
  weight_decay: 1
  convolution_param {
    #num_output: 256
    num_output: 352
    kernel_size: 1
    weight_filler {
      type: "xavier"
    }
    bias_term: false
  }
}
## BN
layers {
  bottom: "inception_5a/1x1"
  name: "inception_5a/1x1/bn"
  top: "inception_5a/1x1/bn"
  type: BN
  blobs_lr: 1
  blobs_lr: 1
  weight_decay: 0
  weight_decay: 0
  bn_param {
    scale_filler {
      type: "constant"
      value: 1
    }
    shift_filler {
      type: "constant"
      value: 0
    }
  }
}
layers {
  bottom: "inception_5a/1x1/bn"
  top: "inception_5a/1x1/bn"
  name: "inception_5a/relu_1x1"
  type: RELU
}
layers {
  bottom: "inception_4e/output"
  top: "inception_5a/3x3_reduce"
  name: "inception_5a/3x3_reduce"
  type: CONVOLUTION
  blobs_lr: 1
  weight_decay: 1
  convolution_param {
    #num_output: 160
    num_output: 192
    kernel_size: 1
    weight_filler {
      type: "xavier"
    }
    bias_term: false
  }
}
## BN
layers {
  bottom: "inception_5a/3x3_reduce"
  name: "inception_5a/3x3_reduce/bn"
  top: "inception_5a/3x3_reduce/bn"
  type: BN
  blobs_lr: 1
  blobs_lr: 1
  weight_decay: 0
  weight_decay: 0
  bn_param {
    scale_filler {
      type: "constant"
      value: 1
    }
    shift_filler {
      type: "constant"
      value: 0
    }
  }
}
layers {
  bottom: "inception_5a/3x3_reduce/bn"
  top: "inception_5a/3x3_reduce/bn"
  name: "inception_5a/relu_3x3_reduce"
  type: RELU
}
layers {
  bottom: "inception_5a/3x3_reduce/bn"
  top: "inception_5a/3x3"
  name: "inception_5a/3x3"
  type: CONVOLUTION
  blobs_lr: 1
  weight_decay: 1
  convolution_param {
    num_output: 320
    pad: 1
    kernel_size: 3
    weight_filler {
      type: "xavier"
    }
    bias_term: false
  }
}
## BN
layers {
  bottom: "inception_5a/3x3"
  name: "inception_5a/3x3/bn"
  top: "inception_5a/3x3/bn"
  type: BN
  blobs_lr: 1
  blobs_lr: 1
  weight_decay: 0
  weight_decay: 0
  bn_param {
    scale_filler {
      type: "constant"
      value: 1
    }
    shift_filler {
      type: "constant"
      value: 0
    }
  }
}
layers {
  bottom: "inception_5a/3x3/bn"
  top: "inception_5a/3x3/bn"
  name: "inception_5a/relu_3x3"
  type: RELU
}
layers {
  bottom: "inception_4e/output"
  top: "inception_5a/double3x3_reduce"
  name: "inception_5a/double3x3_reduce"
  type: CONVOLUTION
  blobs_lr: 1
  weight_decay: 1
  convolution_param {
    #num_output: 32
    num_output: 160
    kernel_size: 1
    weight_filler {
      type: "xavier"
    }
    bias_term: false
  }
}
## BN
layers {
  bottom: "inception_5a/double3x3_reduce"
  name: "inception_5a/double3x3_reduce/bn"
  top: "inception_5a/double3x3_reduce/bn"
  type: BN
  blobs_lr: 1
  blobs_lr: 1
  weight_decay: 0
  weight_decay: 0
  bn_param {
    scale_filler {
      type: "constant"
      value: 1
    }
    shift_filler {
      type: "constant"
      value: 0
    }
  }
}
layers {
  bottom: "inception_5a/double3x3_reduce/bn"
  top: "inception_5a/double3x3_reduce/bn"
  name: "inception_5a/relu_double3x3_reduce"
  type: RELU
}
layers {
  bottom: "inception_5a/double3x3_reduce/bn"
  top: "inception_5a/double3x3a"
  name: "inception_5a/double3x3a"
  type: CONVOLUTION
  blobs_lr: 1
  weight_decay: 1
  convolution_param {
    #num_output: 128
    num_output: 224
    pad: 1
    kernel_size: 3
    weight_filler {
      type: "xavier"
    }
    bias_term: false
  }
}
## BN
layers {
  bottom: "inception_5a/double3x3a"
  name: "inception_5a/double3x3a/bn"
  top: "inception_5a/double3x3a/bn"
  type: BN
  blobs_lr: 1
  blobs_lr: 1
  weight_decay: 0
  weight_decay: 0
  bn_param {
    scale_filler {
      type: "constant"
      value: 1
    }
    shift_filler {
      type: "constant"
      value: 0
    }
  }
}
layers {
  bottom: "inception_5a/double3x3a/bn"
  top: "inception_5a/double3x3a/bn"
  name: "inception_5a/relu_double3x3a"
  type: RELU
}
layers {
  bottom: "inception_5a/double3x3a/bn"
  top: "inception_5a/double3x3b"
  name: "inception_5a/double3x3b"
  type: CONVOLUTION
  blobs_lr: 1
  weight_decay: 1
  convolution_param {
    num_output: 224
    pad: 1
    kernel_size: 3
    weight_filler {
      type: "xavier"
    }
    bias_term: false
  }
}
## BN
layers {
  bottom: "inception_5a/double3x3b"
  name: "inception_5a/double3x3b/bn"
  top: "inception_5a/double3x3b/bn"
  type: BN
  blobs_lr: 1
  blobs_lr: 1
  weight_decay: 0
  weight_decay: 0
  bn_param {
    scale_filler {
      type: "constant"
      value: 1
    }
    shift_filler {
      type: "constant"
      value: 0
    }
  }
}
layers {
  bottom: "inception_5a/double3x3b/bn"
  top: "inception_5a/double3x3b/bn"
  name: "inception_5a/relu_double3x3b"
  type: RELU
}
layers {
  bottom: "inception_4e/output"
  top: "inception_5a/pool"
  name: "inception_5a/pool"
  type: POOLING
  pooling_param {
    #pool: MAX
    pool: AVE
    kernel_size: 3
    stride: 1
    pad: 1
  }
}
layers {
  bottom: "inception_5a/pool"
  top: "inception_5a/pool_proj"
  name: "inception_5a/pool_proj"
  type: CONVOLUTION
  blobs_lr: 1
  weight_decay: 1
  convolution_param {
    num_output: 128
    kernel_size: 1
    weight_filler {
      type: "xavier"
    }
    bias_term: false
  }
}
## BN
layers {
  bottom: "inception_5a/pool_proj"
  name: "inception_5a/pool_proj/bn"
  top: "inception_5a/pool_proj/bn"
  type: BN
  blobs_lr: 1
  blobs_lr: 1
  weight_decay: 0
  weight_decay: 0
  bn_param {
    scale_filler {
      type: "constant"
      value: 1
    }
    shift_filler {
      type: "constant"
      value: 0
    }
  }
}
layers {
  bottom: "inception_5a/pool_proj/bn"
  top: "inception_5a/pool_proj/bn"
  name: "inception_5a/relu_pool_proj"
  type: RELU
}
layers {
  bottom: "inception_5a/1x1/bn"
  bottom: "inception_5a/3x3/bn"
  bottom: "inception_5a/double3x3b/bn"
  bottom: "inception_5a/pool_proj/bn"
  top: "inception_5a/output"
  name: "inception_5a/output"
  type: CONCAT
}
layers {
  bottom: "inception_5a/output"
  top: "inception_5b/1x1"
  name: "inception_5b/1x1"
  type: CONVOLUTION
  blobs_lr: 1
  weight_decay: 1
  convolution_param {
    #num_output: 384
    num_output: 352
    kernel_size: 1
    weight_filler {
      type: "xavier"
    }
    bias_term: false
  }
}
## BN
layers {
  bottom: "inception_5b/1x1"
  name: "inception_5b/1x1/bn"
  top: "inception_5b/1x1/bn"
  type: BN
  blobs_lr: 1
  blobs_lr: 1
  weight_decay: 0
  weight_decay: 0
  bn_param {
    scale_filler {
      type: "constant"
      value: 1
    }
    shift_filler {
      type: "constant"
      value: 0
    }
  }
}
layers {
  bottom: "inception_5b/1x1/bn"
  top: "inception_5b/1x1/bn"
  name: "inception_5b/relu_1x1"
  type: RELU
}
layers {
  bottom: "inception_5a/output"
  top: "inception_5b/3x3_reduce"
  name: "inception_5b/3x3_reduce"
  type: CONVOLUTION
  blobs_lr: 1
  weight_decay: 1
  convolution_param {
    num_output: 192
    kernel_size: 1
    weight_filler {
      type: "xavier"
    }
    bias_term: false
  }
}
## BN
layers {
  bottom: "inception_5b/3x3_reduce"
  name: "inception_5b/3x3_reduce/bn"
  top: "inception_5b/3x3_reduce/bn"
  type: BN
  blobs_lr: 1
  blobs_lr: 1
  weight_decay: 0
  weight_decay: 0
  bn_param {
    scale_filler {
      type: "constant"
      value: 1
    }
    shift_filler {
      type: "constant"
      value: 0
    }
  }
}
layers {
  bottom: "inception_5b/3x3_reduce/bn"
  top: "inception_5b/3x3_reduce/bn"
  name: "inception_5b/relu_3x3_reduce"
  type: RELU
}
layers {
  bottom: "inception_5b/3x3_reduce/bn"
  top: "inception_5b/3x3"
  name: "inception_5b/3x3"
  type: CONVOLUTION
  blobs_lr: 1
  weight_decay: 1
  convolution_param {
    #num_output: 384
    num_output: 320
    pad: 1
    kernel_size: 3
    weight_filler {
      type: "xavier"
    }
    bias_term: false
  }
}
## BN
layers {
  bottom: "inception_5b/3x3"
  name: "inception_5b/3x3/bn"
  top: "inception_5b/3x3/bn"
  type: BN
  blobs_lr: 1
  blobs_lr: 1
  weight_decay: 0
  weight_decay: 0
  bn_param {
    scale_filler {
      type: "constant"
      value: 1
    }
    shift_filler {
      type: "constant"
      value: 0
    }
  }
}
layers {
  bottom: "inception_5b/3x3/bn"
  top: "inception_5b/3x3/bn"
  name: "inception_5b/relu_3x3"
  type: RELU
}
layers {
  bottom: "inception_5a/output"
  top: "inception_5b/double3x3_reduce"
  name: "inception_5b/double3x3_reduce"
  type: CONVOLUTION
  blobs_lr: 1
  weight_decay: 1
  convolution_param {
    #num_output: 48
    num_output: 192
    kernel_size: 1
    weight_filler {
      type: "xavier"
    }
    bias_term: false
  }
}
## BN
layers {
  bottom: "inception_5b/double3x3_reduce"
  name: "inception_5b/double3x3_reduce/bn"
  top: "inception_5b/double3x3_reduce/bn"
  type: BN
  blobs_lr: 1
  blobs_lr: 1
  weight_decay: 0
  weight_decay: 0
  bn_param {
    scale_filler {
      type: "constant"
      value: 1
    }
    shift_filler {
      type: "constant"
      value: 0
    }
  }
}
layers {
  bottom: "inception_5b/double3x3_reduce/bn"
  top: "inception_5b/double3x3_reduce/bn"
  name: "inception_5b/relu_double3x3_reduce"
  type: RELU
}
layers {
  bottom: "inception_5b/double3x3_reduce/bn"
  top: "inception_5b/double3x3a"
  name: "inception_5b/double3x3a"
  type: CONVOLUTION
  blobs_lr: 1
  weight_decay: 1
  convolution_param {
    #num_output: 128
    num_output: 224
    pad: 1
    kernel_size: 3
    weight_filler {
      type: "xavier"
    }
    bias_term: false
  }
}
## BN
layers {
  bottom: "inception_5b/double3x3a"
  name: "inception_5b/double3x3a/bn"
  top: "inception_5b/double3x3a/bn"
  type: BN
  blobs_lr: 1
  blobs_lr: 1
  weight_decay: 0
  weight_decay: 0
  bn_param {
    scale_filler {
      type: "constant"
      value: 1
    }
    shift_filler {
      type: "constant"
      value: 0
    }
  }
}
layers {
  bottom: "inception_5b/double3x3a/bn"
  top: "inception_5b/double3x3a/bn"
  name: "inception_5b/relu_double3x3a"
  type: RELU
}
layers {
  bottom: "inception_5b/double3x3a/bn"
  top: "inception_5b/double3x3b"
  name: "inception_5b/double3x3b"
  type: CONVOLUTION
  blobs_lr: 1
  weight_decay: 1
  convolution_param {
    num_output: 224
    pad: 1
    kernel_size: 3
    weight_filler {
      type: "xavier"
    }
    bias_term: false
  }
}
## BN
layers {
  bottom: "inception_5b/double3x3b"
  name: "inception_5b/double3x3b/bn"
  top: "inception_5b/double3x3b/bn"
  type: BN
  blobs_lr: 1
  blobs_lr: 1
  weight_decay: 0
  weight_decay: 0
  bn_param {
    scale_filler {
      type: "constant"
      value: 1
    }
    shift_filler {
      type: "constant"
      value: 0
    }
  }
}
layers {
  bottom: "inception_5b/double3x3b/bn"
  top: "inception_5b/double3x3b/bn"
  name: "inception_5b/relu_double3x3b"
  type: RELU
}
layers {
  bottom: "inception_5a/output"
  top: "inception_5b/pool"
  name: "inception_5b/pool"
  type: POOLING
  pooling_param {
    pool: MAX
    kernel_size: 3
    stride: 1
    pad: 1
  }
}
layers {
  bottom: "inception_5b/pool"
  top: "inception_5b/pool_proj"
  name: "inception_5b/pool_proj"
  type: CONVOLUTION
  blobs_lr: 1
  weight_decay: 1
  convolution_param {
    num_output: 128
    kernel_size: 1
    weight_filler {
      type: "xavier"
    }
    bias_term: false
  }
}
## BN
layers {
  bottom: "inception_5b/pool_proj"
  name: "inception_5b/pool_proj/bn"
  top: "inception_5b/pool_proj/bn"
  type: BN
  blobs_lr: 1
  blobs_lr: 1
  weight_decay: 0
  weight_decay: 0
  bn_param {
    scale_filler {
      type: "constant"
      value: 1
    }
    shift_filler {
      type: "constant"
      value: 0
    }
  }
}
layers {
  bottom: "inception_5b/pool_proj/bn"
  top: "inception_5b/pool_proj/bn"
  name: "inception_5b/relu_pool_proj"
  type: RELU
}
layers {
  bottom: "inception_5b/1x1/bn"
  bottom: "inception_5b/3x3/bn"
  bottom: "inception_5b/double3x3b/bn"
  bottom: "inception_5b/pool_proj/bn"
  top: "inception_5b/output"
  name: "inception_5b/output"
  type: CONCAT
}
layers {
  bottom: "inception_5b/output"
  top: "pool5/7x7_s1"
  name: "pool5/7x7_s1"
  type: POOLING
  pooling_param {
    pool: AVE
    kernel_size: 7
    stride: 1
  }
}
layers {
  bottom: "pool5/7x7_s1"
  top: "loss3/classifier"
  name: "loss3/classifier"
  type: INNER_PRODUCT
  blobs_lr: 1
  blobs_lr: 2
  weight_decay: 1
  weight_decay: 0
  inner_product_param {
    num_output: 1000
    weight_filler {
      type: "xavier"
    }
    bias_filler {
      type: "constant"
      value: 0
    }
  }
}
layers {
  bottom: "loss3/classifier"
  bottom: "label"
  top: "loss3/loss3"
  name: "loss3/loss3"
  type: SOFTMAX_LOSS
  loss_weight: 1
}
layers {
  bottom: "loss3/classifier"
  bottom: "label"
  top: "loss3/top-1"
  name: "loss3/top-1"
  type: ACCURACY
  include {
    phase: TEST
  }
}
layers {
  bottom: "loss3/classifier"
  bottom: "label"
  top: "loss3/top-5"
  name: "loss3/top-5"
  type: ACCURACY
  accuracy_param {
    top_k: 5
  }
  include {
    phase: TEST
  }
}
